models/cart-pole-value_function-reward-baseline-checkpoint-150-val_reward-700.0-entropy-1_0.pth (torch, 14620 bytes, 6 tensors)

fc1.weight f4 [128, 4]
0.1910604 0.4221457 0.54839355 0.71853215 -0.10401701 0.05808641 0.14561366 0.47557512
0.6575549 -0.5599792 0.79017746 0.43138245 0.32948557 0.075657085 0.33763546 -0.029405192
0.44266135 0.17996854 -0.8685192 -0.2621764 0.04872695 0.0014085039 0.13963328 0.4179865
-0.46052882 -0.57097703 -0.7373259 -0.1402641 0.17812915 -0.6438722 -0.27582857 -0.30933002
0.13324757 0.09214261 0.46003044 0.6316381 -0.13050503 0.25297377 0.37134364 -0.09581474
0.19422725 -0.08665178 0.76841855 0.659999 0.2422205 0.09093052 0.8473808 -0.09461363
0.18677342 -0.46247524 -0.82165915 -0.18676975 -0.3432374 0.54045296 0.6812185 0.38949347
0.23792851 -0.011292139 -0.4500052 -0.627169 -0.083730206 -0.08555972 0.15191421 -0.24696153
0.1360258 -0.11337015 -0.073773906 -0.3978844 -0.12285244 -0.18498388 0.6767665 0.055975262
0.36904 -0.20640343 -0.93934107 -0.78732735 -0.206207 0.45981714 0.48977983 0.45403212
-0.031860117 -0.3524355 -0.38671678 -0.5195143 0.09985303 0.041530963 -0.27690375 -0.7661679
-0.2216613 0.026964989 -0.08788751 -0.11657922 0.035381686 -0.122151315 -0.7404674 -0.031360228
0.3588656 -0.23368447 -0.5335142 -0.45349696 -0.33969733 0.13101043 -0.80845356 -0.628648
-0.18017468 -0.34380117 -0.8411851 -0.17181197 -0.19182639 -0.30676106 -0.090723455 0.023267832
0.13428111 -0.52497435 0.080140054 0.13296403 -0.013523057 -0.48848143 -0.71556187 -0.3212785
-0.17160568 -0.47169387 -0.59221375 -0.3071962 -0.1963974 -0.2181717 -0.6178376 -0.42086786
0.51700765 -0.27259198 0.9214741 0.50799906 -0.423588 0.3056278 0.3806045 0.11768822
-0.1538083 -0.27742025 -0.19272396 -0.20865208 0.323289 -0.29318172 -0.24118857 -0.5095702
-0.056103323 0.16566731 0.8210449 0.5223207 0.5192299 -0.39965233 0.54481924 -0.055087645
-0.13082504 -0.6401879 -0.15512984 -0.33386117 0.11513712 0.17193696 -0.45919684 -0.5639413
0.43781447 0.21412264 0.7753925 -0.35491666 0.22924659 -0.17174575 0.17755824 0.530206
0.055607665 -0.1884477 -0.28828084 -0.23205478 0.052631933 -0.08072515 -0.55174804 -0.22863504
-0.45561215 0.1324237 -0.26404095 -0.64155465 0.30755842 0.4214086 0.8136522 -0.019116508
0.21976975 -0.003953388 0.107406095 -0.0011343547 -0.3594814 -0.10313588 -0.6481058 -0.31247303
0.15948899 0.5035539 -0.6420844 -0.5008982 -0.1019187 -0.07238887 0.5721347 0.061841946
-0.2513342 -0.091947705 0.6888668 0.35639867 -0.1328634 -0.32793882 -0.5867529 -0.30688155
-0.15332185 0.25532198 0.88488626 0.3127304 -0.24974814 -0.21191971 0.3936658 0.61462015
-0.12576056 -0.32773653 -0.18565942 -0.081228144 -0.2722795 0.35201433 0.13206139 0.13599627
-0.6184054 0.42408192 1.1295311 0.27070087 -0.14429168 -0.4175247 -0.017727932 0.5485362
0.05871763 0.2547987 0.34161407 0.12090955 0.02178447 -0.39547136 -0.82459956 -0.4578076
-0.042652644 -0.17116357 -0.08031427 -0.4359913 -0.21855283 -0.26489028 -0.6288274 -0.0583043
-0.23943824 0.24585387 -0.66169935 -0.65894973 -0.14219022 -0.32264134 -0.66250825 -0.64857614
00000000: 56a5 433e 7b23 d83e 8563 0c3f b9f1 373f
00000010: df06 d5bd 04ec 6d3d bf1b 153e 957e f33e
00000020: 8555 283f cc5a 0fbf 1249 4a3f 29de dc3e
00000030: 55b2 a83e 1af2 9a3d 8ede ac3e 28e3 f0bc
00000040: 82a4 e23e ac49 383e 4657 5ebf fc3b 86be
00000050: e995 473d 8c9d b83a 07fc 0e3e 5402 d63e
00000060: 6fca ebbe 8d2b 12bf 64c1 3cbf 64a1 0fbe
00000070: 7d67 363e cfd4 24bf 6739 8dbe 8160 9ebe
00000080: 0d72 083e 44b5 bc3d 1c89 eb3e 09b3 213f
00000090: 1ca3 05be c785 813e c120 be3e 853a c4bd
000000a0: 82e3 463e 7d76 b1bd 14b7 443f b2f5 283f
000000b0: a708 783e c839 ba3d f3ed 583f cac4 c1bd
000000c0: 8841 3f3e 8ec9 ecbe 4158 52bf 9240 3fbe
000000d0: d0bc afbe 205b 0a3f 5664 2e3f b06b c73e
000000e0: 88a3 733e aa02 39bc 1567 e6be 268e 20bf
000000f0: be7a abbd ef39 afbd 668f 1b3e 7ce3 7cbe
00000100: 594a 0b3e 9c2e e8bd c616 97bd 81b7 cbbe
00000110: 0f9a fbbd 6a6c 3dbe 9240 2d3f 5146 653d
00000120: d0f2 bc3e 6c5b 53be a878 70bf 498e 49bf
00000130: ee27 53be 276d eb3e 6cc4 fa3e e676 e83e
00000140: c17f 02bd 6d72 b4be beff c5be e4fe 04bf
00000150: bf7f cc3d 5f1c 2a3d 54c6 8dbe 9423 44bf
00000160: 2efb 62be aee5 dc3c 5efe b3bd 16c1 eebd
00000170: 63ec 103d 782a fabd 468f 3dbf 9573 00bd
00000180: 3bbd b73e fb4a 6fbe 6394 08bf c130 e8be
00000190: cfec adbe 9927 063e d0f6 4ebf 13ef 20bf
000001a0: b67f 38be b506 b0be e857 57bf 7aef 2fbe
000001b0: 236e 44be c90f 9dbe 38cd b9bd 2e9c be3c
000001c0: fd80 093e b864 06bf 7820 a43d b927 083e
000001d0: d08f 5dbc 3d1a fabe 102f 37bf 9e7e a4be
000001e0: 66b9 2fbe dc81 f1be 529b 17bf d248 9dbe
000001f0: 661c 49be 6768 5fbe 9b2a 1ebf fe7b d7be
00000200: 9d5a 043f 2d91 8bbe bae5 6b3f 3a0c 023f
00000210: 87e0 d8be 3f7b 9c3e 98de c23e 8606 f13d
00000220: ec7f 1dbe 070a 8ebe 6e59 45be e4a8 55be
00000230: 2386 a53e ea1b 96be 23fa 76be 3173 02bf
00000240: 99cc 65bd b1a4 293e 0030 523f cfb6 053f
00000250: 40ec 043f 3b9f ccbe 4679 0b3f 95a3 61bd
00000260: 00f7 05be 5be3 23bf 5bda 1ebe daef aabe
00000270: 03cd eb3d 3e10 303e d91b ebbe 755e 10bf
00000280: 3829 e03e f742 5b3e 1f80 463f a3b7 b5be
00000290: 9ebf 6a3e 1ede 2fbe d4d1 353e 95bb 073f
000002a0: ddc4 633d 6ff8 40be 8c99 93be c59f 6dbe
000002b0: 9594 573d 3a53 a5bd 5c3f 0dbf 4e1f 6abe
000002c0: ff45 e9be 149a 073e 6030 87be ed3c 24bf
000002d0: 4c78 9d3e dec2 d73e 834b 503f 399a 9cbc
000002e0: 520b 613e 6c8b 81bb baf7 db3d a1ae 94ba
000002f0: f20d b8be e738 d3bd 43ea 25bf 77fc 9fbe
00000300: 1551 233e e9e8 003f a55f 24bf dd3a 00bf
00000310: c0ba d0bd 9e40 94bd 6b77 123f fb4d 7d3d
00000320: e0ae 80be 144f bcbd 9359 303f e379 b63e
00000330: 580d 08be 99e7 a7be 7035 16bf 941f 9dbe
00000340: 6700 1dbe 90b9 823e e887 623f 331e a03e
00000350: fabd 7fbe 7b01 59be 908e c93e bf57 1d3f
00000360: 60c7 00be 15cd a7be 811d 3ebe f15a a6bd
00000370: 3868 8bbe 393b b43e 1a3b 073e 9b42 0b3e
00000380: d14f 1ebf 4421 d93e 7a94 903f 4e99 8a3e
00000390: 33c1 13be ccc5 d5be 2b3a 91bc de6c 0c3f
000003a0: e681 703d fa74 823e 0ae8 ae3e 6d9f f73d
000003b0: 5875 b23c 397b cabe f518 53bf c265 eabe
000003c0: 8ab4 2ebd 8145 2fbe cf7b a4bd 403a dfbe
000003d0: 50cc 5fbe b39f 87be d5fa 20bf 7dd0 6ebd
000003e0: 4c2f 75be 1ec1 7b3e 2165 29bf eeb0 28bf
000003f0: 509a 11be 3f31 a5be 249a 29bf 1609 26bf

fc2.weight f4 [2, 128]
-0.24624565 -0.252752 -0.4695194 -0.21208243 0.25042915 -0.1342542 0.3119403 0.16063534
-0.24583225 -0.05681147 -0.1931153 -0.115627885 0.27998522 -0.20524156 0.4717625 0.00072955823
0.027800156 -0.11239669 0.29259053 -0.16202371 0.11471227 0.36751086 -0.04238251 0.05815646
0.13359311 0.29499176 0.09856655 0.006753066 -0.09794023 0.28157753 0.33251297 0.08631058
-0.30719438 -0.017586168 -0.041233245 0.090858474 -0.28688362 -0.17572193 0.32762182 0.28723395
-0.13802966 -0.09619617 0.015821781 0.011754843 0.18899877 -0.14349063 -0.1314326 0.35845172
0.20527399 -0.1362562 0.021209106 0.08756245 -0.27751008 -0.083068445 0.17813298 -0.1024678
-0.42823017 -0.067045785 -0.028172705 0.09771011 0.072045796 0.1072579 0.29646972 0.20804384
-0.20668052 0.06360547 -0.5608038 0.19407356 -0.19999243 0.11939808 0.2156079 -0.11486619
0.4780943 0.022099258 0.08393015 0.20970604 -0.00428494 -0.1621867 -0.23298633 0.062820256
-0.38569838 0.2646104 -0.13326731 0.091066144 0.3754339 0.10237369 0.0106779765 -0.2956916
0.15037969 -0.17674378 -0.14010096 -0.031117823 -0.3176297 0.24207714 -0.1948936 -0.027241984
0.3765023 0.35038492 0.15896672 0.028789736 -0.21294543 0.36709803 0.14267798 0.18188138
0.14123937 -0.12897646 0.05732292 0.22529064 -0.41010097 -0.19267216 -0.09751441 -0.29432914
0.32458895 -0.100712225 0.2684828 -0.021914875 0.3191195 0.007272245 -0.3461388 -0.088997364
-0.22927366 0.16353376 -0.013445751 0.032225896 0.10004898 -0.28776452 0.08901712 0.014802676
0.29179206 0.10251405 0.49076498 0.19405198 -0.25994205 0.008338541 -0.21643473 -0.18176691
0.22592051 0.072187796 0.255941 0.121652074 -0.14278068 0.1342049 -0.41998416 0.08491084
-0.023358978 0.07497731 -0.282709 0.19119065 -0.19160381 -0.2634689 0.014898878 -0.0151349045
-0.18406844 -0.28737086 -0.12082106 0.06522299 0.09319072 -0.35792935 -0.36511022 -0.031371187
0.47838888 0.071009085 0.028150894 0.04572972 0.33853018 0.12632468 -0.42772755 -0.25854987
0.1764307 0.1499106 -0.08661391 -0.044497475 -0.18136209 0.23774026 0.094123274 -0.29855877
-0.23027381 0.18523672 0.01138589 -0.07851129 0.23034768 0.11481617 -0.2387317 0.109210804
0.4177203 0.059383195 -0.074117236 -0.10358298 -0.07275706 -0.11488321 -0.2649285 -0.30847147
0.20316783 -0.08805334 0.55453295 -0.20795354 0.17765906 -0.172325 -0.21198891 0.23332419
-0.41222054 -0.08593344 -0.05434591 -0.13679932 0.044313196 0.10309673 0.23575513 -0.011632809
0.29551607 -0.21211675 0.12124067 -0.09096757 -0.41561538 -0.15043023 0.08245635 0.232337
-0.28375566 0.17706993 0.11695376 -0.08628481 0.22347379 -0.26767007 0.18637656 0.08550527
-0.37616417 -0.32972375 -0.057386372 -0.004703369 0.20800608 -0.2761159 -0.082282916 -0.09564136
-0.18630613 0.017809656 -0.025009815 -0.20068525 0.339563 0.25276098 0.052011337 0.27343968
-0.36385638 0.044589162 -0.19854799 0.004832866 -0.40488413 0.061017603 0.22667624 0.1317
0.21904707 -0.11447961 -0.034626786 -0.12611447 -0.26670533 0.29202425 -0.1429307 -0.117816724
00000000: d227 7cbe b668 81be d964 f0be 232c 59be
00000010: 4038 803e ef79 09be a4b6 9f3e 977d 243e
00000020: 73bb 7bbe 25b3 68bd 04c0 45be 50ce ecbd
00000030: 395a 8f3e d82a 52be db8a f13e d33f 3f3a
00000040: 27bd e33c 3c30 e6bd 6dce 953e 8be9 25be
00000050: 44ee ea3d 622a bc3e 4899 2dbd 7835 6e3d
00000060: a2cc 083e 2909 973e 42dd c93d d348 dd3b
00000070: e394 c8bd ee2a 903e 243f aa3e 9ac3 b03d
00000080: 9548 9dbe de10 90bc 31e4 28bd 0214 ba3d
00000090: 69e2 92be 73f0 33be 0cbe a73e 5410 933e
000000a0: a657 0dbe 7f02 c5bd ae9c 813c 6397 403c
000000b0: e588 413e 35ef 12be 4496 06be fc86 b73e
000000c0: 5833 523e bf86 0bbe b8be ad3c f153 b33d
000000d0: cd15 8ebe ca1f aabd 7e68 363e a3da d1bd
000000e0: fc40 dbbe 4d4f 89bd 72ca e6bc 3d1c c83d
000000f0: bf8c 933d 08aa db3d e1ca 973e 7209 553e
00000100: 0fa4 53be 9643 823d d690 0fbf 38bb 463e
00000110: d1ca 4cbe fb86 f43d 51c8 5c3e f73e ebbd
00000120: c7c8 f43e 8109 b53c 92e3 ab3d 2ebd 563e
00000130: af68 8cbb 4514 26be f893 6ebe e8a7 803d
00000140: 427a c5be 047b 873e 3a77 08be e380 ba3d
00000150: df38 c03e 4ca9 d13d aef2 2e3c e464 97be
00000160: 22fd 193e 52fc 34be a076 0fbe ceea febc
00000170: 5ca0 a2be 12e3 773e 3092 47be 952a dfbc
00000180: e9c4 c03e a765 b33e 2cc8 223e 74d8 eb3c
00000190: 5e0e 5abe 46f4 bb3e 2d1a 123e 1d3f 3a3e
000001a0: 0ea1 103e 6812 04be 70cb 6a3d 97b2 663e
000001b0: c1f8 d1be da4b 45be a3b5 c7bd 4fb2 96be
000001c0: 8630 a63e 3642 cebd 9476 893e d386 b3bc
000001d0: a263 a33e 034c ee3b 1b39 b1be 4044 b6bd
000001e0: b7c6 6abe 6575 273e 914b 5cbc 4dff 033d
000001f0: 7be6 cc3d df55 93be 9c4e b63d ec86 723c
00000200: c565 953e e3f2 d13d 8c45 fb3e 90b5 463e
00000210: 2017 85be 609e 083c 11a1 5dbe 1b21 3abe
00000220: b557 673e 32d7 933d b30a 833e b924 f93d
00000230: 1935 12be 026d 093e 2a08 d7be bce5 ad3d
00000240: 545b bfbc b48d 993d 3cbf 90be 7bc7 433e
00000250: ca33 44be 65e5 86be 6c1a 743c 64f8 77bc
00000260: 707c 3cbe 4622 93be 0871 f7bd a293 853d
00000270: c7da be3d 8442 b7be baef babe 137f 00bd
00000280: 63ef f43e 366d 913d b49c e63c 164f 3b3d
00000290: d453 ad3e 425b 013e 1bff dabe a660 84be
000002a0: 40aa 343e 2a82 193e a262 b1bd fc42 36bd
000002b0: fcb6 39be 2f72 733e b4c3 c03d b2dc 98be
000002c0: e6cc 6bbe b2ae 3d3e e28b 3a3c 87ca a0bd
000002d0: 43e0 6b3e bd24 eb3d 1576 74be eaa9 df3d
000002e0: 6fdf d53e cb3b 733d c7ca 97bd 5023 d4bd
000002f0: a701 95bd e347 ebbd b5a4 87be f9ef 9dbe
00000300: 3a0b 503e 4f55 b4bd dff5 0d3f c6f1 54be
00000310: 42ec 353e f775 30be 9f13 59be 89ec 6e3e
00000320: 920e d3be dffd afbd d199 5ebd 1f15 0cbe
00000330: c181 353d 6124 d33d cb69 713e 8a97 3ebc
00000340: e24d 973e 2235 59be 074d f83d 354d babd
00000350: 8acb d4be 620a 1abe e0de a83d c0e9 6d3e
00000360: 6c48 91be d251 353e 7485 ef3d 17b6 b0bd
00000370: 50d6 643e 0d0c 89be 7fd9 3e3e 631d af3d
00000380: 9798 c0be 8dd1 a8be f90d 6bbd b81e 9abb
00000390: 8cff 543e 105f 8dbe f283 a8bd 9edf c3bd
000003a0: 09c7 3ebe 8ee5 913c 62e1 ccbc 6f80 4dbe
000003b0: 34db ad3e e369 813e d709 553d 4900 8c3e
000003c0: 624b babe 20a3 363d 2a50 4bbe 055d 9e3b
000003d0: f94c cfbe 98ed 793d d11d 683e 5ddc 063e
000003e0: e04d 603e 4974 eabd d1d4 0dbd 2724 01be
000003f0: 9a8d 88be 3484 953e 6d5c 12be e549 f1bd

exp_avg f4 [128, 4]
-23.900862 -10.348095 0.30320567 6.0103545 3.967231 10.805615 -0.023248933 -5.636101
31.642763 -82.271355 -4.779259 21.897993 -13.836985 -9.792618 -0.12427296 3.6000762
2.1982143 17.54748 2.1420171 -8.739646 -1.787682 -0.7318599 -0.094139 1.9015112
-17.583551 9.86307 5.009974 -2.4658518 -12.944013 8.468136 1.4321301 -2.7711112
-8.0772505 -41.44374 0.8747347 7.1063085 1.3972877 0.67647475 0.060349964 -0.72184205
15.559205 -13.140954 -0.9738552 -2.6497457 4.4429536 -1.4166751 -0.7150938 5.214201
9.674198 7.054547 0.14538898 -0.26226243 5.051206 -7.5593452 -0.78862166 2.8361988
-8.488302 53.63379 4.378081 -5.7547655 -1.3940487 -4.9838543 0.5072885 0.1473029
3.3931723 0.73404706 0.18122672 0.090747364 2.7140183 -7.739105 -0.38349584 0.8171005
5.451693 -9.520762 -0.015350309 -0.66490805 1.8312784 -2.2703784 -0.68011206 1.0522175
-11.199562 10.693522 1.877873 -0.55975306 4.5012784 9.163946 1.9347503 1.9496706
-0.40883005 -2.1890311 0.19499698 -0.14012209 2.555171 5.685454 0.18693735 -1.8066043
-7.5332603 18.827032 1.5892434 -4.846594 -5.8743305 8.370384 2.797111 -3.3012357
0.8093115 -7.2114654 0.5080066 1.8715098 0.47666934 2.7341394 -0.119630806 -0.93127435
1.8357105 -9.09423 -0.98262906 1.4441358 -15.265446 4.691511 5.7056313 1.639965
-5.959366 37.44646 0.23459332 -13.849845 -1.1081339 7.025282 0.13281177 -1.8119268
-13.405332 -22.756205 -1.0864675 -1.7107192 -0.39116865 -1.5406984 0.07362098 0.34837624
-0.9113968 -1.5320611 0.1777321 0.21226043 4.307966 -0.78076416 0.38666144 -0.3152971
9.706908 7.450939 -0.5379966 -5.9020357 4.9368124 9.194641 0.3243481 -2.0846615
-11.396744 7.055317 4.746115 -7.6365466 -5.5270367 17.737175 3.380928 -3.640298
-15.523525 -2.3579204 0.11262461 -2.4770906 14.193272 0.9022253 -0.40426758 -2.6658466
8.612647 4.939737 -0.2956182 -2.5172842 5.05199 1.3622372 0.08584083 -1.5367687
2.4906642 1.8547326 -0.2777042 1.8756642 27.98307 14.989055 -0.20245917 -6.639677
-2.1301684 -3.5317597 -0.86825186 1.6511456 0.6677539 1.9028528 0.4140606 6.433848
13.317081 3.6925192 -1.0417684 0.1351053 2.196719 -10.302951 -0.4751332 1.6839325
-0.10268945 0.16888596 0.018474841 0.059311096 1.0768397 10.9004965 -0.42263708 -1.7727901
1.0804806 -5.7872505 -0.27771345 2.712228 3.7643342 -6.597608 -0.23804982 1.1729056
6.458323 -3.046593 -0.5314567 5.520869 1.8538471 -0.31856793 -0.077310465 0.49099413
10.265433 2.3727946 -1.019308 2.1637404 2.2214065 -5.846331 0.16264945 2.8170445
1.9862571 0.8075869 -0.039917093 0.5006098 -7.1171203 3.1616488 0.93990046 -2.6356013
7.147775 21.230946 -0.40519762 -5.5827956 0.8313054 8.852066 -0.25027293 0.27928123
35.50793 17.0047 -0.7425714 -3.574748 0.9226973 18.86118 -0.6957966 6.303687
00000000: f734 bfc1 cc91 25c1 c63d 9b3e d354 c040
00000010: 1de7 7d40 cde3 2c41 8c74 bebc f05a b4c0
00000020: 6124 fd41 ef8a a4c2 b1ef 98c0 172f af41
00000030: 4a64 5dc1 90ae 1cc1 d282 febd a667 6640
00000040: 8baf 0c40 3d61 8c41 cf16 0940 97d5 0bc1
00000050: c4d2 e4bf 2c5b 3bbf f3cb c0bd b864 f33f
00000060: 1dab 8cc1 22cf 1d41 b551 a040 84d0 1dc0
00000070: ad1a 4fc1 7c7d 0741 0a50 b73f e359 31c0
00000080: 6b3c 01c1 64c6 25c2 9dee 5f3f e166 e340
00000090: 53da b23f 732d 2d3f 8631 773d a4ca 38bf
000000a0: 81f2 7841 5941 52c1 934e 79bf 6f95 29c0
000000b0: ad2c 8e40 9c55 b5bf 6310 37bf bcda a640
000000c0: 84c9 1a41 d9be e140 d9e0 143e 4347 86be
000000d0: 7ba3 a140 28e6 f1c0 1ce3 49bf 4884 3540
000000e0: 16d0 07c1 0089 5642 3d19 8c40 0a27 b8c0
000000f0: 3070 b2bf bc7b 9fc0 a9dd 013f 92d6 163e
00000100: bc29 5940 82ea 3b3f 7f93 393e c1d9 b93d
00000110: 7ab2 2d40 c0a6 f7c0 9159 c4be 802d 513f
00000120: 4574 ae40 0b55 18c1 dd7f 7bbc 6a37 2abf
00000130: 5567 ea3f e14d 11c0 d31b 2ebf 10af 863f
00000140: 6831 33c1 ab18 2b41 245e f03f fa4b 0fbf
00000150: 790a 9040 869f 1241 e6a5 f73f ce8e f93f
00000160: 2c52 d1be 1619 0cc0 4aad 473e 2a7c 0fbe
00000170: ec87 2340 3def b540 816c 3f3e cf3e e7bf
00000180: 7810 f1c0 c39d 9641 546c cb3f 4c17 9bc0
00000190: 84fa bbc0 18ed 0541 de03 3340 7247 53c0
000001a0: 0a2f 4f3f 53c4 e6c0 b80c 023f a28d ef3f
000001b0: 010e f43e 24fc 2e40 ff00 f5bd ff67 6ebf
000001c0: 90f8 ea3f f781 11c1 948d 7bbf 71d9 b83f
000001d0: 443f 74c1 dc20 9640 8894 b640 60ea d13f
000001e0: 20b3 bec0 2dc9 1542 3b39 703e f798 5dc1
000001f0: 55d7 8dbf 1ccf e040 cfff 073e 38ed e7bf
00000200: 3d7c 56c1 b50c b6c1 5e11 8bbf d9f8 dabf
00000210: 4247 c8be 9b35 c5bf 99c6 963d 5f5e b23e
00000220: 4d51 69bf 941a c4bf 67ff 353e cc5a 593e
00000230: dcda 8940 29e0 47bf 7df8 c53e 9f6e a1be
00000240: 7f4f 1b41 186e ee40 25ba 09bf 7add bcc0
00000250: 5efa 9d40 401d 1341 f410 a63e 186b 05c0
00000260: 1059 36c1 28c5 e140 2de0 9740 975e f4c0
00000270: 7cdd b0c0 bce5 8d41 2061 5840 a4fa 68c0
00000280: 5c60 78c1 2be8 16c0 bba7 e63d a788 1ec0
00000290: a417 6341 3df8 663f 29fc cebe 3b9d 2ac0
000002a0: 67cd 0941 5312 9e40 455b 97be 2f1b 21c0
000002b0: e7a9 a140 ca5d ae3f 51cd af3d d6b4 c4bf
000002c0: 0b67 1f40 e167 ed3f 3f2f 8ebe c415 f03f
000002d0: 54dd df41 2bd3 6f41 7551 4fbe 3c78 d4c0
000002e0: ae54 08c0 5a08 62c0 c145 5ebf bd58 d33f
000002f0: ebf1 2a3f ae90 f33f c0ff d33e 15e2 cd40
00000300: c412 5541 3c52 6c40 ab58 85bf 0b59 0a3e
00000310: 0b97 0c40 e3d8 24c1 a944 f3be 1a8b d73f
00000320: d94e d2bd 71f0 2c3e 8d58 973c 31f0 723d
00000330: e2d5 893f 6f68 2e41 e363 d8be c9ea e2bf
00000340: 304d 8a3f 2831 b9c0 7530 8ebe 2595 2d40
00000350: daea 7040 9b1f d3c0 55c3 73be c521 963f
00000360: 95aa ce40 61fb 42c0 8c0d 08bf f5aa b040
00000370: dd4a ed3f 561b a3be f354 9ebd 9563 fb3e
00000380: 373f 2441 dedb 1740 af78 82bf b97a 0a40
00000390: 862b 0e40 2515 bbc0 948d 263e 754a 3440
000003a0: ac3d fe3f 04be 4e3f 1b80 23bd f727 003f
000003b0: 73bf e3c0 7458 4a40 519d 703f b1ad 28c0
000003c0: 93ba e440 fad8 a941 1076 cfbe 43a6 b2c0
000003d0: 6ed0 543f 10a2 0d41 c623 80be f3fd 8e3e
000003e0: 1f08 0e42 a009 8841 2919 3ebf acc8 64c0
000003f0: e435 6c3f b2e3 9641 ba1f 32bf ceb7 c940

exp_avg_sq f4 [128, 4]
672.822 838.8051 17.033348 195.77333 311.63974 383.7059 9.582235 99.33568
2293.324 1401.5973 21.33333 289.47882 187.73038 52.385845 1.345008 20.959778
953.0465 385.79083 4.0230126 143.4124 34.24278 19.182816 0.4840307 6.718496
214.24501 320.10223 9.055588 142.1194 236.62802 184.58804 4.1124115 58.103493
197.57129 310.9701 2.7596388 46.1397 33.23282 27.835346 0.732977 12.71945
262.53314 201.00027 4.7403784 53.689632 137.25127 126.01597 3.311699 30.881207
623.5385 271.35962 7.3476357 99.86125 357.05972 274.5214 4.545498 91.05244
1144.8909 757.7428 23.522018 220.21129 2.017304 8.740744 0.18110347 1.378222
26.194859 25.150988 0.81592953 10.957937 37.743225 32.936695 0.7247232 6.965845
885.0996 626.35693 11.551831 194.88614 306.3621 190.45369 5.8070455 82.9097
108.51333 154.47911 2.8286564 51.21277 608.6054 370.84442 5.989539 137.66646
8.40092 12.423221 0.37294987 9.910458 18.93273 16.021212 0.21746047 4.1195
242.70566 139.09692 3.3984962 40.83546 417.30118 283.77173 10.962762 136.7376
74.420296 40.523136 0.96893287 15.539077 2.49988 3.849326 0.15067118 1.3654131
105.199326 73.16541 1.3370788 18.520874 604.41003 561.17706 10.23315 137.45143
434.72278 431.61798 13.756452 172.63203 10.395581 31.782095 0.6530194 11.719857
991.73816 662.35004 12.270023 225.66376 73.6218 22.915388 0.98943025 22.299532
10.770883 12.716526 0.24846359 5.2567363 80.96003 90.605286 1.3582729 33.13233
233.71303 229.83853 6.8254867 100.21942 114.66694 33.148754 1.1804035 10.907052
901.93835 1036.6575 17.63045 230.86057 289.67902 200.40733 4.116287 83.82852
142.2488 82.040016 3.2392852 36.65878 209.6559 143.1841 3.240472 44.776863
24.196012 7.134312 0.16697462 3.6859164 31.600492 16.573757 0.29130065 5.2515197
243.393 222.2874 6.8869295 91.06188 739.33185 618.40607 9.591605 332.81186
29.499504 29.263664 0.551412 14.36374 501.1085 369.1117 7.2675853 151.3453
510.58762 218.78958 6.4180765 99.51087 108.48295 109.09194 2.585798 27.350765
11.760518 10.217947 0.23112956 3.2769725 22.507847 52.841843 1.6140227 19.008724
298.0577 187.963 5.400365 58.075317 120.1417 140.60536 2.7183976 28.570879
327.46417 314.81375 7.0374184 100.53823 18.172045 12.067953 0.6655836 9.330306
673.83356 823.4807 16.76698 415.77502 89.37591 76.93193 1.9533241 21.931917
15.766631 12.835594 0.29877523 8.669348 171.02502 107.88791 1.8202628 33.89571
46.279346 59.10192 1.1473106 15.410641 35.70845 49.428513 1.19535 15.486609
506.58463 323.43484 5.9744444 113.89951 349.91107 309.23953 5.365241 87.19888
00000000: 9c34 2844 87b3 5144 4c44 8841 f9c5 4343
00000010: e3d1 9b43 5bda bf43 d650 1941 deab c642
00000020: 2f55 0f45 1d33 af44 a9aa aa41 4abd 9043
00000030: faba 3b43 1b8b 5142 3929 ac3f a0ad a741
00000040: fa42 6e44 3ae5 c043 85bc 8040 9369 0f43
00000050: 9bf8 0842 6876 9941 dfd2 f73e ebfd d640
00000060: b93e 5643 160d a043 b0e3 1041 911e 0e43
00000070: c6a0 6c43 8a96 3843 e098 8340 fa69 6842
00000080: 4092 4543 2c7c 9b43 ec9d 3040 0e8f 3842
00000090: 68ee 0442 caae de41 61a4 3b3f de82 4b41
000000a0: 3e44 8343 1200 4943 2eb1 9740 2fc2 5642
000000b0: 5340 0943 2d08 fc42 e0f2 5340 b60c f741
000000c0: 77e2 1b44 08ae 8743 d51f eb40 f6b8 c742
000000d0: a587 b243 bd42 8943 b874 9140 d91a b642
000000e0: 821c 8f44 8a6f 3d44 182d bc41 1736 5c43
000000f0: 821b 0140 16da 0b41 3073 393e 9469 b03f
00000100: 128f d141 3935 c941 c2e0 503f b653 2f41
00000110: 10f9 1642 2dbf 0342 7687 393f 34e8 de40
00000120: 6046 5d44 d896 1c44 4dd4 3841 dae2 4243
00000130: 592e 9943 2574 3e43 51d3 b940 c4d1 a542
00000140: d306 d942 a77a 1a43 b508 3540 e0d9 4c42
00000150: bf26 1844 166c b943 4eaa bf40 9daa 0943
00000160: 2b6a 0641 83c5 4641 49f3 be3e 3c91 1e41
00000170: 3b76 9741 712b 8041 f5ad 5e3e f2d2 8340
00000180: a6b4 7243 d018 0b43 f680 5940 8357 2342
00000190: 8da6 d043 c8e2 8d43 7967 2f41 d3bc 0843
000001a0: 31d7 9442 b117 2242 fc0b 783f 0fa0 7841
000001b0: 09fe 1f40 5b5b 7640 8c49 1a3e dbc5 ae3f
000001c0: 0e66 d242 b154 9242 6625 ab3f c02a 9441
000001d0: 3e1a 1744 554b 0c44 fbba 2341 9173 0943
000001e0: 845c d943 1acf d743 6d1a 5c41 cda1 2c43
000001f0: 4d54 2641 bb41 fe41 482c 273f 8984 3b41
00000200: 3eef 7744 6796 2544 0452 4441 eca9 6143
00000210: 5d3e 9342 b752 b741 4d4b 7d3f 7165 b241
00000220: 8955 2c41 e476 4b41 3d6d 7e3e 2f37 a840
00000230: 89eb a142 e835 b542 e3db ad3f 8287 0442
00000240: 89b6 6943 aad6 6543 636a da40 5870 c842
00000250: 7955 e542 5398 0442 7617 973f 4983 2e41
00000260: 0e7c 6144 0a95 8144 290b 8d41 4edc 6643
00000270: ead6 9043 4768 4843 a0b8 8340 34a8 a742
00000280: b13f 0e43 7d14 a442 7350 4f40 97a2 1242
00000290: e9a7 5143 212f 0f43 e563 4f40 821b 3342
000002a0: 6f91 c141 494c e440 65fb 2a3e 0ee6 6b40
000002b0: cfcd fc41 0e97 8441 5c25 953e 730c a840
000002c0: 9c64 7343 9349 5e43 ba61 dc40 af1f b642
000002d0: 3dd5 3844 fd99 1a44 3777 1941 eb67 a643
000002e0: fcfe eb41 fc1b ea41 5629 0d3f e1d1 6541
000002f0: e38d fa43 4c8e b843 0f90 e840 6658 1743
00000300: 374b ff43 22ca 5a43 e260 cd40 9105 c742
00000310: 45f7 d842 132f da42 b77d 2540 5ece da41
00000320: 152b 3c41 b67c 2341 3aad 6c3e ebb9 5140
00000330: 1210 b441 0c5e 5342 4c98 ce3f de11 9841
00000340: 6307 9543 87f6 3b43 cacf ac40 204d 6842
00000350: 8d48 f042 f99a 0c43 3afa 2d40 2991 e441
00000360: 6abb a343 2968 9d43 8832 e140 9313 c942
00000370: 5960 9141 5616 4141 b063 2a3f ef48 1541
00000380: 5975 2844 c4de 4d44 c622 8641 34e3 cf43
00000390: 77c0 b242 26dd 9942 8606 fa3f 9174 af41
000003a0: 1f44 7c41 985e 4d41 11f9 983e a6b5 0a41
000003b0: 6806 2b43 9cc6 d742 5ffe e83f 3595 0742
000003c0: 0d1e 3942 5e68 6c42 13db 923f fc91 7641
000003d0: 74d5 0e42 ccb6 4542 3b01 993f 27c9 7741
000003e0: d54a fd43 a9b7 a143 a62e bf40 8dcc e342
000003f0: 9ef4 ae43 a99e 9a43 0eb0 ab40 d465 ae42

exp_avg f4 [2, 128]
6.1076627 6.655074 -76.109 14.174441 8.829996 -6.374499 -0.98467785 -19.887482
-0.93140805 -1.5045347 -5.638714 -0.6615881 -5.171544 15.84006 1.0518298 -6.043784
2.1152525 -5.06046 9.1183815 3.7932892 -11.96956 -0.1530121 -0.17759217 -6.4792185
-18.1629 6.038319 7.9642487 21.929245 -25.889845 -10.03953 -17.334873 -4.943145
3.5852826 2.9211795 -5.7966843 18.154022 3.6514843 3.4243143 -1.3750633 6.133774
22.845114 -9.527038 6.544899 7.137158 -5.2784147 -33.753822 1.7859529 -3.8787365
10.660428 -1.7132943 -6.1154027 -17.256147 1.6083071 -4.8504972 0.1280004 2.5412536
6.8129587 -27.605013 4.1020637 -4.856011 -6.318107 -10.077985 1.3350428 -18.14567
-18.291336 3.770865 42.328262 -14.167724 9.09248 5.495178 -22.028515 -3.3718235
-40.064274 5.6729035 -1.3010705 -0.34590095 4.4139066 7.774912 14.854119 4.4560747
1.5326891 -11.397787 1.7209625 -1.7641314 -13.602398 -4.992028 14.937016 -7.446537
11.110521 -11.326968 -28.913763 6.0764284 2.6061645 -7.5107217 4.5889435 -2.5132222
-1.2456139 -6.6681476 22.862118 5.854483 2.841323 -12.401517 1.2480965 -18.793497
3.3918633 -1.2963076 8.108485 9.2132225 8.078037 4.840566 -2.301974 32.48978
-13.202306 3.0332496 12.634141 -2.4376228 -22.187098 20.69294 22.774218 -3.32717
9.15048 -7.831779 -1.7808027 3.8362653 10.355985 -34.688393 18.736612 0.59952396
-6.1076627 -6.655074 76.109 -14.174441 -8.829996 6.374499 0.98467785 19.887482
0.93140805 1.5045347 5.638714 0.6615881 5.171544 -15.84006 -1.0518298 6.043784
-2.1152525 5.06046 -9.1183815 -3.7932892 11.96956 0.1530121 0.17759217 6.4792185
18.1629 -6.038319 -7.9642487 -21.929245 25.889845 10.03953 17.334873 4.943145
-3.5852826 -2.9211795 5.7966843 -18.154022 -3.6514843 -3.4243143 1.3750633 -6.133774
-22.845114 9.527038 -6.544899 -7.137158 5.2784147 33.753822 -1.7859529 3.8787365
-10.660428 1.7132943 6.1154027 17.256147 -1.6083071 4.8504972 -0.1280004 -2.5412536
-6.8129587 27.605013 -4.1020637 4.856011 6.318107 10.077985 -1.3350428 18.14567
18.291336 -3.770865 -42.328262 14.167724 -9.09248 -5.495178 22.028515 3.3718235
40.064274 -5.6729035 1.3010705 0.34590095 -4.4139066 -7.774912 -14.854119 -4.4560747
-1.5326891 11.397787 -1.7209625 1.7641314 13.602398 4.992028 -14.937016 7.446537
-11.110521 11.326968 28.913763 -6.0764284 -2.6061645 7.5107217 -4.5889435 2.5132222
1.2456139 6.6681476 -22.862118 -5.854483 -2.841323 12.401517 -1.2480965 18.793497
-3.3918633 1.2963076 -8.108485 -9.2132225 -8.078037 -4.840566 2.301974 -32.48978
13.202306 -3.0332496 -12.634141 2.4376228 22.187098 -20.69294 -22.774218 3.32717
-9.15048 7.831779 1.7808027 -3.8362653 -10.355985 34.688393 -18.736612 -0.59952396
00000000: f971 c340 5ef6 d440 cf37 98c2 83ca 6241
00000010: aa47 0d41 e5fb cbc0 d913 7cbf 9019 9fc1
00000020: c270 6ebf 9894 c0bf 5870 b4c0 d65d 29bf
00000030: 4a7d a5c0 e370 7d41 5ca2 863f ae66 c1c0
00000040: 4c60 0740 4aef a1c0 e4e4 1141 40c5 7240
00000050: 5183 3fc1 34af 1cbe b9da 35be c255 cfc0
00000060: 9f4d 91c1 e939 c140 20db fe40 186f af41
00000070: 671e cfc1 eaa1 20c1 d2ad 8ac1 3e2e 9ec0
00000080: 4575 6540 9bf4 3a40 707e b9c0 703b 9141
00000090: ebb1 6940 f727 5b40 1302 b0bf e047 c440
000000a0: cbc2 b641 bf6e 18c1 d06f d140 9963 e440
000000b0: c6e8 a8c0 ea03 07c2 1b9a e43f 383d 78c0
000000c0: 1d91 2a41 3a4d dbbf 61b1 c3c0 970c 8ac1
000000d0: 02dd cd3f 4637 9bc0 8912 033e e6a3 2240
000000e0: c203 da40 11d7 dcc1 1b44 8340 7164 9bc0
000000f0: ef2d cac0 6d3f 21c1 afe2 aa3f 552a 91c1
00000100: a854 92c1 da55 7140 2450 2942 ffae 62c1
00000110: cc7a 1141 80d8 af40 663a b0c1 f5cb 57c0
00000120: d141 20c2 6d88 b540 7a89 a6bf ee19 b1be
00000130: b93e 8d40 14cc f840 79aa 6d41 2a98 8e40
00000140: 282f c43f 565d 36c1 8048 dc3f 0fcf e1bf
00000150: 6ca3 59c1 b2be 9fc0 04fe 6e41 084a eec0
00000160: b2c4 3141 433b 35c1 634f e7c1 1a72 c240
00000170: 66cb 2640 d557 f0c0 a0d8 9240 a2d8 20c0
00000180: 4770 9fbf 7761 d5c0 9ee5 b641 ed57 bb40
00000190: 3cd8 3540 9d6c 46c1 a0c1 9f3f 1559 96c1
000001a0: 4a14 5940 68ed a5bf 5bbc 0141 5c69 1341
000001b0: a43f 0141 ebe5 9a40 8b53 13c0 89f5 0142
000001c0: a53c 53c1 c320 4240 7125 4a41 0302 1cc0
000001d0: 2d7f b1c1 248b a541 9931 b641 5af0 54c0
000001e0: 5e68 1241 ef9d fac0 58f1 e3bf 5f85 7540
000001f0: 1db2 2541 eac0 0ac2 95e4 9541 677a 193f
00000200: f971 c3c0 5ef6 d4c0 cf37 9842 83ca 62c1
00000210: aa47 0dc1 e5fb cb40 d913 7c3f 9019 9f41
00000220: c270 6e3f 9894 c03f 5870 b440 d65d 293f
00000230: 4a7d a540 e370 7dc1 5ca2 86bf ae66 c140
00000240: 4c60 07c0 4aef a140 e4e4 11c1 40c5 72c0
00000250: 5183 3f41 34af 1c3e b9da 353e c255 cf40
00000260: 9f4d 9141 e939 c1c0 20db fec0 186f afc1
00000270: 671e cf41 eaa1 2041 d2ad 8a41 3e2e 9e40
00000280: 4575 65c0 9bf4 3ac0 707e b940 703b 91c1
00000290: ebb1 69c0 f727 5bc0 1302 b03f e047 c4c0
000002a0: cbc2 b6c1 bf6e 1841 d06f d1c0 9963 e4c0
000002b0: c6e8 a840 ea03 0742 1b9a e4bf 383d 7840
000002c0: 1d91 2ac1 3a4d db3f 61b1 c340 970c 8a41
000002d0: 02dd cdbf 4637 9b40 8912 03be e6a3 22c0
000002e0: c203 dac0 11d7 dc41 1b44 83c0 7164 9b40
000002f0: ef2d ca40 6d3f 2141 afe2 aabf 552a 9141
00000300: a854 9241 da55 71c0 2450 29c2 ffae 6241
00000310: cc7a 11c1 80d8 afc0 663a b041 f5cb 5740
00000320: d141 2042 6d88 b5c0 7a89 a63f ee19 b13e
00000330: b93e 8dc0 14cc f8c0 79aa 6dc1 2a98 8ec0
00000340: 282f c4bf 565d 3641 8048 dcbf 0fcf e13f
00000350: 6ca3 5941 b2be 9f40 04fe 6ec1 084a ee40
00000360: b2c4 31c1 433b 3541 634f e741 1a72 c2c0
00000370: 66cb 26c0 d557 f040 a0d8 92c0 a2d8 2040
00000380: 4770 9f3f 7761 d540 9ee5 b6c1 ed57 bbc0
00000390: 3cd8 35c0 9d6c 4641 a0c1 9fbf 1559 9641
000003a0: 4a14 59c0 68ed a53f 5bbc 01c1 5c69 13c1
000003b0: a43f 01c1 ebe5 9ac0 8b53 1340 89f5 01c2
000003c0: a53c 5341 c320 42c0 7125 4ac1 0302 1c40
000003d0: 2d7f b141 248b a5c1 9931 b6c1 5af0 5440
000003e0: 5e68 12c1 ef9d fa40 58f1 e33f 5f85 75c0
000003f0: 1db2 25c1 eac0 0a42 95e4 95c1 677a 19bf

exp_avg_sq f4 [2, 128]
287.1337 169.88847 1701.1061 186.16222 1056.0046 94.19106 566.7453 568.9834
116.687584 221.69296 425.93057 174.57426 372.03427 474.72913 135.44344 47.5616
138.00597 226.58377 644.76935 165.63817 208.60431 277.31577 82.437675 156.41272
626.33984 784.1914 217.62183 356.50558 812.8862 237.5549 173.49442 179.88338
921.82983 464.0563 222.50949 385.5209 68.311455 773.086 471.1123 253.75174
769.21814 606.63855 32.769173 121.407196 972.0155 1262.5396 174.70403 321.022
933.5937 49.470055 308.63876 444.34103 109.290405 937.2064 164.33376 120.54864
724.0569 1111.3077 404.87003 253.02356 43.90601 181.01654 478.62268 304.92233
1007.91547 163.7765 1925.3667 550.35095 563.4208 687.36847 200.38011 488.86987
1070.8685 546.3362 175.87207 25.679703 286.38635 217.19179 257.70282 603.4591
489.3064 911.58905 97.768906 639.4503 300.67853 72.38738 650.8745 434.93222
733.7527 385.42236 588.40216 119.50696 480.99307 410.72812 1637.7434 840.22845
867.17413 274.56024 530.138 116.201225 37.091434 376.16757 205.96248 576.8663
199.44572 279.4653 406.92883 106.95788 296.36523 32.263287 84.90476 1442.3574
326.75568 67.88022 569.2568 33.200535 194.10419 337.41943 803.63715 512.7996
839.90955 618.5091 313.57446 122.36794 1047.6316 1444.237 1030.98 97.389854
287.1337 169.88847 1701.1061 186.16222 1056.0046 94.19106 566.7453 568.9834
116.687584 221.69296 425.93057 174.57426 372.03427 474.72913 135.44344 47.5616
138.00597 226.58377 644.76935 165.63817 208.60431 277.31577 82.437675 156.41272
626.33984 784.1914 217.62183 356.50558 812.8862 237.5549 173.49442 179.88338
921.82983 464.0563 222.50949 385.5209 68.311455 773.086 471.1123 253.75174
769.21814 606.63855 32.769173 121.407196 972.0155 1262.5396 174.70403 321.022
933.5937 49.470055 308.63876 444.34103 109.290405 937.2064 164.33376 120.54864
724.0569 1111.3077 404.87003 253.02356 43.90601 181.01654 478.62268 304.92233
1007.91547 163.7765 1925.3667 550.35095 563.4208 687.36847 200.38011 488.86987
1070.8685 546.3362 175.87207 25.679703 286.38635 217.19179 257.70282 603.4591
489.3064 911.58905 97.768906 639.4503 300.67853 72.38738 650.8745 434.93222
733.7527 385.42236 588.40216 119.50696 480.99307 410.72812 1637.7434 840.22845
867.17413 274.56024 530.138 116.201225 37.091434 376.16757 205.96248 576.8663
199.44572 279.4653 406.92883 106.95788 296.36523 32.263287 84.90476 1442.3574
326.75568 67.88022 569.2568 33.200535 194.10419 337.41943 803.63715 512.7996
839.90955 618.5091 313.57446 122.36794 1047.6316 1444.237 1030.98 97.389854
00000000: 1d91 8f43 73e3 2943 65a3 d444 8729 3a43
00000010: 2600 8444 d361 bc42 b3af 0d44 f03e 0e44
00000020: 0b60 e942 66b1 5d43 1df7 d443 0393 2e43
00000030: 6304 ba43 545d ed43 8571 0743 143f 3e42
00000040: 8701 0a43 7295 6243 3d31 2144 5fa3 2543
00000050: b49a 5043 6ba8 8a43 17e0 a442 a869 1c43
00000060: c095 1c44 400c 4444 309f 5943 b740 b243
00000070: b838 4b44 0e8e 6d43 927e 2d43 25e2 3343
00000080: 1c75 6644 3507 e843 6e82 5e43 adc2 c043
00000090: 779f 8842 8145 4144 608e eb43 72c0 7d43
000000a0: f64d 4044 dea8 1744 a213 0342 7cd0 f242
000000b0: fe00 7344 44d1 9d44 3bb4 2e43 d182 a043
000000c0: ff65 6944 56e1 4542 c351 9a43 a72b de43
000000d0: b094 da42 364d 6a44 7155 2443 e718 f142
000000e0: a403 3544 d9e9 8a44 5d6f ca43 0806 7d43
000000f0: c19f 2f42 3c04 3543 b44f ef43 0f76 9843
00000100: 97fa 7b44 c9c6 2343 bcab f044 7696 0944
00000110: eeda 0c44 95d7 2b44 4f61 4843 586f f443
00000120: cbdb 8544 8495 0844 40df 2f43 0870 cd41
00000130: 7431 8f43 1931 5943 f6d9 8043 62dd 1644
00000140: 38a7 f443 b3e5 6344 ae89 c342 d2dc 1f44
00000150: da56 9643 57c6 9042 f8b7 2244 5377 d943
00000160: 2c70 3744 10b6 c043 bd19 1344 9003 ef42
00000170: 1d7f f043 335d cd43 cab7 cc44 9f0e 5244
00000180: 25cb 5844 b647 8943 d588 0444 0767 e842
00000190: a15d 1442 7315 bc43 65f6 4d43 7137 1044
000001a0: 1b72 4743 8fbb 8b43 e476 cb43 6fea d542
000001b0: c02e 9443 9b0d 0142 3dcf a942 704b b444
000001c0: ba60 a343 acc2 8742 6f50 0e44 59cd 0442
000001d0: ac1a 4243 b0b5 a843 c7e8 4844 2d33 0044
000001e0: 36fa 5144 95a0 1a44 88c9 9c43 63bc f442
000001f0: 36f4 8244 9687 b444 5cdf 8044 9bc7 c242
00000200: 1d91 8f43 73e3 2943 65a3 d444 8729 3a43
00000210: 2600 8444 d361 bc42 b3af 0d44 f03e 0e44
00000220: 0b60 e942 66b1 5d43 1df7 d443 0393 2e43
00000230: 6304 ba43 545d ed43 8571 0743 143f 3e42
00000240: 8701 0a43 7295 6243 3d31 2144 5fa3 2543
00000250: b49a 5043 6ba8 8a43 17e0 a442 a869 1c43
00000260: c095 1c44 400c 4444 309f 5943 b740 b243
00000270: b838 4b44 0e8e 6d43 927e 2d43 25e2 3343
00000280: 1c75 6644 3507 e843 6e82 5e43 adc2 c043
00000290: 779f 8842 8145 4144 608e eb43 72c0 7d43
000002a0: f64d 4044 dea8 1744 a213 0342 7cd0 f242
000002b0: fe00 7344 44d1 9d44 3bb4 2e43 d182 a043
000002c0: ff65 6944 56e1 4542 c351 9a43 a72b de43
000002d0: b094 da42 364d 6a44 7155 2443 e718 f142
000002e0: a403 3544 d9e9 8a44 5d6f ca43 0806 7d43
000002f0: c19f 2f42 3c04 3543 b44f ef43 0f76 9843
00000300: 97fa 7b44 c9c6 2343 bcab f044 7696 0944
00000310: eeda 0c44 95d7 2b44 4f61 4843 586f f443
00000320: cbdb 8544 8495 0844 40df 2f43 0870 cd41
00000330: 7431 8f43 1931 5943 f6d9 8043 62dd 1644
00000340: 38a7 f443 b3e5 6344 ae89 c342 d2dc 1f44
00000350: da56 9643 57c6 9042 f8b7 2244 5377 d943
00000360: 2c70 3744 10b6 c043 bd19 1344 9003 ef42
00000370: 1d7f f043 335d cd43 cab7 cc44 9f0e 5244
00000380: 25cb 5844 b647 8943 d588 0444 0767 e842
00000390: a15d 1442 7315 bc43 65f6 4d43 7137 1044
000003a0: 1b72 4743 8fbb 8b43 e476 cb43 6fea d542
000003b0: c02e 9443 9b0d 0142 3dcf a942 704b b444
000003c0: ba60 a343 acc2 8742 6f50 0e44 59cd 0442
000003d0: ac1a 4243 b0b5 a843 c7e8 4844 2d33 0044
000003e0: 36fa 5144 95a0 1a44 88c9 9c43 63bc f442
000003f0: 36f4 8244 9687 b444 5cdf 8044 9bc7 c242
